DeepReinforcementLearning/ContinuousControl/checkpoint_critic.pth (torch_old, 169958 bytes, 5 tensors)

fcs1.weight f4 [256, 33]
0	0x3d11773f	0.035514113
1	0xbc655238	-0.013996653
2	0x3988b72a	0.0002607641
3	0xbd416c42	-0.047222383
4	0x3bc8a377	0.006123002
5	0x3d3d9a30	0.046289623
6	0xbc15f9c6	-0.009153789
7	0xbd20e348	-0.039279252
8	0x3d1526a4	0.036413804
9	0x3cbec1f3	0.023285842
10	0x3b4bb568	0.0031083468
11	0xbc990c0c	-0.018682502
12	0xbc9e9dfc	-0.019362442
13	0xbd6bd7c8	-0.057578832
14	0x3c3865eb	0.011254768
15	0xbc3fa3cb	-0.011696766
16	0x3d1eff76	0.038817845
17	0x3bcd7fca	0.006271337
18	0x3e0cd99c	0.13754886
19	0x3d1d5004	0.038406387
20	0x3c93bc28	0.018034056
21	0xbd0cbd1c	-0.034360036
22	0x3cd7aad1	0.026326569
23	0x3d1579dd	0.03649317
24	0x3c898b7e	0.016790148
25	0xbc3ea890	-0.011636868
26	0x3d7e7f55	0.062133152
27	0x3da1bf69	0.07897837
28	0x3c8c8b8c	0.017156385
29	0xba673f80	-0.0008821413
30	0xbdad498f	-0.08461296
31	0xbbb02d40	-0.005376488
32	0xbeeac7a8	-0.4585545
33	0x3b418ed6	0.00295346
34	0xbd939f16	-0.072080776
35	0xbbf77c28	-0.0075526424
36	0x3d1dc18f	0.03851467
37	0x3d52a93c	0.051430926
38	0xbd428517	-0.047490206
39	0x3c6845e8	0.014176823
40	0xbda7b23c	-0.081882924
41	0x3defc508	0.117075026
42	0x3d39d16c	0.045365736
43	0xbac51cfb	-0.0015038544
44	0xbd066849	-0.032814298
45	0x3d0721bb	0.032991152
46	0x3ce9f464	0.028558917
47	0xbd25bc02	-0.0404625
48	0x3d20f0b2	0.039292045
49	0x3c639a50	0.013891771
50	0xbc3b5a1c	-0.011435058
51	0x3ddf6244	0.109074146
52	0xbdca9c4b	-0.09893092
53	0xbc3f0a85	-0.011660223
54	0xbc2a0658	-0.010377489
55	0xbd3ea2c4	-0.046541944
56	0x3c5489a8	0.012972273
57	0x3c551a85	0.013006811
58	0xbd263289	-0.040575538
59	0x3c4a3f59	0.012344205
60	0xbca092ca	-0.019601244
61	0x3cce2284	0.025162943
62	0x3d7fca66	0.06244888
63	0x3cfb44a5	0.03067238
64	0x3d2d51cc	0.042314336
65	0xbd40c305	-0.047060985
66	0x3c909bb2	0.017652366
67	0xbc02a745	-0.0079744505
68	0x3c323830	0.010877654
69	0xbd38f652	-0.045156784
70	0x3d53cd3e	0.051709406
71	0xbd54ff6f	-0.052001413
72	0x3cb8a6e3	0.022540515
73	0x3ce5d327	0.028054787
74	0xbcc752bf	-0.024331449
75	0xbd8373a6	-0.064185426
76	0xbccf79b3	-0.025326585
77	0xbc978b49	-0.018499034
78	0xbc0e0f50	-0.008670643
79	0xbdff7eed	-0.12475381
80	0x3db201f0	0.08691776
81	0xbc31fa56	-0.010862907
82	0xbca36052	-0.01994339
83	0x3d51d68f	0.05123001
84	0x3e0b77fa	0.13619986
85	0x3d52b585	0.05144264
86	0x3b97413d	0.0046159313
87	0xbd1589b2	-0.03650827
88	0xbd25562c	-0.040365383
89	0xbe17ea3d	-0.14835449
90	0x3c2b2712	0.010446327
91	0xbc58cb3a	-0.013232047
92	0x3da26d97	0.07931059
93	0x3d637031	0.055526916
94	0xbd34320c	-0.04399304
95	0x3d5bf028	0.053695828
96	0xbd7643e7	-0.06012335
97	0x3d300c84	0.042980686
98	0x3e628c2e	0.22123787
99	0x3d84e792	0.06489481
100	0xb87f5f5c	-6.0885548e-05
101	0x3be90ffd	0.0071125017
102	0x3c8f4d78	0.017492995
103	0xbd43ebf4	-0.047832444
104	0xbce62aa5	-0.028096506
105	0x3ce51f31	0.027968975
106	0x3d21b21f	0.03947651
107	0xbc2ff115	-0.010738631
108	0xbd88ad2b	-0.06673654
109	0x3c1aa98b	0.009439836
110	0x3d97993a	0.074022725
111	0xbd50ad05	-0.050946254
112	0xbd0cdeb3	-0.03439207
113	0x3ce79b6d	0.028272355
114	0xbbffa287	-0.007801357
115	0xbda7ee9c	-0.08199808
116	0x3de7eeae	0.113248214
117	0x3d7f578b	0.062339347
118	0xbd08dbd9	-0.033412788
119	0x3d411199	0.047135923
120	0xbd8ed5c6	-0.06974368
121	0xbda273fa	-0.07932277
122	0xbc09a4bd	-0.008401093
123	0x3cd9b8be	0.02657735
124	0x3d4b28a2	0.049599297
125	0xbce2b5e9	-0.027674632
126	0xbd491b2e	-0.049098186
127	0x3c87a25d	0.016556913
128	0x3c9931d8	0.018700525
129	0x3d611b80	0.054957867
130	0xbc404ed0	-0.01173754
131	0xbcf6420c	-0.03006079
132	0xbd38df3d	-0.04513477
133	0x3d5cee56	0.053938232
134	0x3dcc033e	0.09961556
135	0x3cb2d129	0.021828251
136	0x3d3722d0	0.044710934
137	0x3d364708	0.044501334
138	0x3d26e783	0.04074813
139	0xbd25df77	-0.040496316
140	0x3dd3ba60	0.103382826
141	0xbd2e61a2	-0.04257358
142	0xbd5cba10	-0.05388838
143	0xbd5b90d9	-0.053604934
144	0xbc757937	-0.014982513
145	0xbcde16fb	-0.027110567
146	0x3ca38983	0.019963032
147	0xbca7c0b0	-0.020477623
148	0x3d933b85	0.07189087
149	0x3ce16067	0.027511789
150	0x3ca83e8a	0.020537633
151	0x3d727fc1	0.059203867
152	0xbc500e02	-0.012698652
153	0xbd904cb8	-0.07045883
154	0xbd386e72	-0.045027204
155	0xbceae30b	-0.028672716
156	0xbc1a583f	-0.009420454
157	0xbd3595dc	-0.04433237
158	0xbc49750e	-0.012295974
159	0x3d2c8c74	0.042126134
160	0x3d6851ab	0.05671851
161	0x3d6fc7fe	0.058540337
162	0xbdb0aae8	-0.08626348
163	0xbd00d8f0	-0.031456888
164	0x3e97384e	0.29535145
165	0xbd77c9a7	-0.060495045
166	0x3ca08598	0.019594952
167	0xbd22c8f6	-0.039742433
168	0xbd7ea93a	-0.062173106
169	0x3ce3b348	0.027795449
170	0xbd6b85c4	-0.057500616
171	0x3dc9b35f	0.098486654
172	0xbce2b9ed	-0.027676547
173	0xbcb54478	-0.022127375
174	0xbd50df86	-0.05099442
175	0xbbdfb498	-0.0068269484
176	0x3d915513	0.07096305
177	0x3d926035	0.07147256
178	0xbd877d1c	-0.066156596
179	0x3ce480ea	0.027893502
180	0xbac6ce47	-0.0015167677
181	0xbded41b8	-0.115848005
182	0x3d826d83	0.06368544
183	0x3d260834	0.040535167
184	0x3d36753e	0.044545405
185	0xbb0e100e	-0.002167705
186	0x3bf61266	0.0075095175
187	0x3d394dcb	0.045240205
188	0xbddfdf6f	-0.109312885
189	0x3c461949	0.012090989
190	0xbd513965	-0.051080126
191	0x3d8c0e5a	0.06838675
192	0x3dd0cc72	0.10195245
193	0xbd21ce53	-0.039503407
194	0xbc82ea04	-0.015980728
195	0xbcbf8321	-0.023377957
196	0xbd3ba9d0	-0.045816243
197	0x3e0acb75	0.13554175
198	0x3d318e5a	0.043348648
199	0x3d089436	0.03334447
200	0xbc8f8fb1	-0.017524572
201	0xbc324079	-0.010879629
202	0x3b7d48ec	0.00386482
203	0xbc8bfa9c	-0.017087273
204	0x3c0d5821	0.008626969
205	0xbb56ca83	-0.0032774515
206	0x3c749015	0.01492693
207	0x3d57060d	0.052496005
208	0x3d40f440	0.047107935
209	0xbc89d55b	-0.016825369
210	0x3b0f2b0b	0.0021845724
211	0x3d0a4b21	0.033763055
212	0x3cd43674	0.025904872
213	0x3c1b98d8	0.00949689
214	0xbc96b065	-0.018394658
215	0x3bc191c6	0.00590727
216	0x3d43a7da	0.047767498
217	0xbd554f5b	-0.052077632
218	0x39b4c744	0.0003448074
219	0xbd184d05	-0.037182827
220	0xbdaa0b67	-0.08302956
221	0x3d5bfb29	0.053706322
222	0x3da5931f	0.08084702
223	0x3d2eb712	0.04265506
224	0x3d190326	0.03735652
225	0x3cc41e66	0.023940276
226	0x3d40d909	0.04708198
227	0x3ca65060	0.020301998
228	0xbd6afa17	-0.05736741
229	0xbcc9c684	-0.024630792
230	0x3ebf76dc	0.3739537
231	0x3cd1da1d	0.0256167
232	0xbd0b89b5	-0.034066875
233	0xbd766262	-0.06015242
234	0x3cf3f3b1	0.029779287
235	0xbaf7bf4d	-0.0018901617
236	0xbd053d89	-0.032529388
237	0x3cbcd705	0.023051748
238	0xbce90f40	-0.028449655
239	0x3d25c9c6	0.04047563
240	0xbc5cf89f	-0.01348701
241	0x3c9c2b0e	0.019063499
242	0x3d1a9a36	0.037744723
243	0x3d36a8c5	0.044594545
244	0xbda0a9c3	-0.078448795
245	0x3cb400f4	0.02197311
246	0x3d1b8921	0.037972573
247	0xbd6fa60d	-0.058507968
248	0xbc01e309	-0.007927665
249	0x3cd0b19e	0.02547532
250	0x3d95fa2a	0.07323106
251	0x3c564cea	0.013079861
252	0xbcb6c00b	-0.02230837
253	0xbc7e6bba	-0.015528614
254	0xbcdac1b2	-0.02670369
255	0xbce88fcd	-0.028388882

fcs1.bias f4 [256]
0	0x3de33622	0.110943094
1	0xbe27aa44	-0.16373545
2	0xbd5ceb79	-0.0539355
3	0x3d702a6a	0.0586342
4	0x3d8c082a	0.06837495
5	0x3cd46102	0.025925163
6	0xbdf385fa	-0.118907884
7	0x3d3a17b6	0.04543277
8	0x3e287adb	0.16453116
9	0xbd9332ba	-0.0718741
10	0xbd2af0f9	-0.041733716
11	0xbd2111f2	-0.039323755
12	0xbda49e48	-0.08038002
13	0x3e2f33f0	0.17109656
14	0x3c58e7b3	0.013238835
15	0xbe33b363	-0.175489
16	0x3d1bb600	0.038015366
17	0x3bc3c6e8	0.005974639
18	0x3e2e55ab	0.17024867
19	0x3dd10d0b	0.10207566
20	0xbe3e80e3	-0.18603854
21	0xbd01d1c2	-0.03169418
22	0xbdaa4c89	-0.08315379
23	0x3e04d1be	0.12970635
24	0xbe527983	-0.20554166
25	0x3d258a4d	0.040415097
26	0x3e23a031	0.15979077
27	0x3d276613	0.04086883
28	0xbd749867	-0.059715655
29	0xbca1ad70	-0.019736022
30	0xbe1f03b0	-0.1552875
31	0x3c4b1a69	0.012396433
32	0x3de56e4d	0.11202679
33	0xbe1dac95	-0.15397866
34	0x3dc8d131	0.09805525
35	0x3da1bce2	0.07897355
36	0x3ddc578f	0.10758888
37	0xbe1eac64	-0.1549545
38	0xbd5a03ca	-0.05322627
39	0x3da57e2e	0.080807075
40	0xbe13d6e0	-0.14437437
41	0x3e0ed136	0.13946995
42	0xbd628b12	-0.05530841
43	0xbe25b631	-0.16182782
44	0x3e0c4840	0.13699436
45	0x3b82f892	0.003996917
46	0xbc7262ba	-0.014794046
47	0xbd03ed83	-0.03220893
48	0xbdc8bca4	-0.09801605
49	0xbe0c899f	-0.13724373
50	0xbb12c988	-0.0022397954
51	0xbc33f776	-0.010984292
52	0x3c146f2c	0.009059709
53	0x3c0cb475	0.008587946
54	0x3ddab7a8	0.10679561
55	0x3dc0a5c2	0.09406616
56	0x3e0f474f	0.13992046
57	0xbc07f6dc	-0.008298602
58	0xbdc6c13f	-0.097048275
59	0x3e3d2698	0.18471754
60	0x3d91d297	0.07120245
61	0xbe05fcc0	-0.13084698
62	0xbe397e4a	-0.18114582
63	0xbd3417e9	-0.043968115
64	0x3e509f6b	0.20373313
65	0x3de22baa	0.110434845
66	0xbcd687f0	-0.026187867
67	0xbdeef933	-0.11668625
68	0x3d0a83c0	0.033817053
69	0xbbfadc3d	-0.007655649
70	0x3ddfb001	0.10922242
71	0xbe01013a	-0.12598124
72	0x3de12409	0.10993201
73	0x3dcff695	0.10154454
74	0x3e3188c4	0.17337328
75	0x3e064fb5	0.13116343
76	0xbd4def88	-0.050277263
77	0xbda30728	-0.07960349
78	0x3e0aabdf	0.13542126
79	0x3da0677a	0.078322366
80	0xbd1739cb	-0.03692035
81	0xbd225810	-0.039634764
82	0xbe286829	-0.16445984
83	0xbd454901	-0.048165325
84	0x3df716e1	0.12064911
85	0xbc7b3abe	-0.015333829
86	0x3d5ce89c	0.05393277
87	0x3d0c765a	0.034292556
88	0x3e40ab34	0.18815309
89	0x3d31b52f	0.04338568
90	0xbe47bcff	-0.1950569
91	0x3d0b9fd3	0.034087967
92	0x3ddc150e	0.10746203
93	0xbde7ce79	-0.113186784
94	0x3dc9b04a	0.098480776
95	0x3cb6005c	0.022216968
96	0x3d28bd63	0.04119624
97	0xbe271f48	-0.16320527
98	0xbd6dba7a	-0.058039166
99	0x3db51356	0.08841579
100	0x3e2088d9	0.15677203
101	0x3da0a211	0.07843412
102	0xbd89d1a7	-0.06729441
103	0xbde5c9cf	-0.112201326
104	0xbdc46967	-0.095904164
105	0x3e03166d	0.12801524
106	0xbdb09b2e	-0.08623348
107	0xbe053988	-0.13010228
108	0xbde4deb5	-0.111752905
109	0x3be0b714	0.006857762
110	0xbd1d7696	-0.03844317
111	0x3dbb0921	0.091326006
112	0x3c9daff6	0.019248944
113	0xbe00ef78	-0.1259135
114	0xbd840fe0	-0.064483404
115	0xbe303608	-0.17208111
116	0xbd787486	-0.060658
117	0x3dd777b9	0.10520882
118	0xbd62d4ae	-0.05537861
119	0xbddf37de	-0.10899328
120	0xbbdddcff	-0.0067707296
121	0xbe039413	-0.12849455
122	0xbe11c247	-0.14234267
123	0xbd85ccd1	-0.06533206
124	0x3a29cc8c	0.0006477318
125	0xbd89888a	-0.06715496
126	0xbdf3a7b4	-0.11897221
127	0x3c09c8f1	0.008409725
128	0x3c497ca3	0.012297782
129	0x3dc02fd5	0.09384123
130	0x3925878e	0.00015786124
131	0xbd7e1a86	-0.062037013
132	0x3d879b6e	0.06621443
133	0x3c94e375	0.018174866
134	0x3df42de8	0.119228184
135	0xbddde8fd	-0.108354546
136	0x3d545333	0.051837157
137	0x3d9e7c24	0.07738522
138	0xbd04ccf3	-0.032422017
139	0xbdc3ef56	-0.09567134
140	0xbd451af6	-0.048121415
141	0xbd40b886	-0.047050975
142	0x3d1e0d6b	0.038587015
143	0xbe06ff3e	-0.13183305
144	0x3df90735	0.12159578
145	0x3e0d1775	0.1377848
146	0x3d3e90f7	0.046524968
147	0x3dabbbb1	0.08385409
148	0xbdeeeba3	-0.11666038
149	0x3dce424c	0.10071239
150	0xbe1289a6	-0.14310321
151	0x3cbaadb1	0.0227879
152	0x3da57279	0.080784746
153	0x3d9ddab1	0.07707728
154	0x3d429f37	0.04751512
155	0xbd15ae99	-0.036543462
156	0xbe34037f	-0.17579459
157	0xbdf39e6a	-0.118954495
158	0x3cbcdddf	0.023055015
159	0x3dff9d28	0.12481147
160	0xbe2cd7b3	-0.16879158
161	0x3e1edc41	0.15513708
162	0x3da0d763	0.07853582
163	0x3d9953e4	0.07486704
164	0xbe43ae1d	-0.19109388
165	0x3d48de47	0.049040105
166	0x3d91dbb4	0.07121983
167	0xbdf5fdd9	-0.12011308
168	0x3dab6f37	0.08370822
169	0xbdcc3de8	-0.09972745
170	0xbe00b996	-0.12570795
171	0x3c2fb43e	0.010724125
172	0x3cc0ae46	0.0235206
173	0xbcd00a13	-0.025395429
174	0xbdba934c	-0.09110126
175	0x3dff20ce	0.12457429
176	0xbd93e343	-0.07221081
177	0x3e5034ad	0.20332594
178	0xbdaa1fd7	-0.08306854
179	0xbd3c3ce8	-0.045956522
180	0x3d609f8f	0.054839667
181	0x3dd41de0	0.10357261
182	0x3e10477b	0.14089768
183	0x3d6e54c8	0.058186322
184	0xbe267746	-0.16256437
185	0x3c5802eb	0.013184289
186	0xbd620c56	-0.055187546
187	0x3e31be47	0.17357741
188	0xbd389661	-0.045065288
189	0xbd80f0b3	-0.0629591
190	0xbda5a725	-0.08088521
191	0x3e1daaaf	0.15397142
192	0xbdc801c2	-0.0976596
193	0xbbd2e95a	-0.006436509
194	0xbe2c5daa	-0.16832605
195	0xbdef24a2	-0.11676909
196	0x3da272ff	0.0793209
197	0xbe08a140	-0.13342762
198	0xbde9ec5d	-0.11422036
199	0x3d2c535f	0.042071696
200	0xbd957baf	-0.072989814
201	0xbcab0c76	-0.020879965
202	0x3e044163	0.12915568
203	0x3e321001	0.17388918
204	0xbc865167	-0.016396238
205	0xba708ab8	-0.0009175944
206	0xbe22e681	-0.15908243
207	0x3d6ee664	0.058325186
208	0x3daa9010	0.08328259
209	0xbd8050e8	-0.06265432
210	0xbe0e39fd	-0.13889308
211	0xbca093d6	-0.019601744
212	0x3e085d13	0.13316755
213	0xbda7ee57	-0.081997566
214	0x3dc3ca4a	0.09560068
215	0xbd87bcf4	-0.06627837
216	0xbcd899a1	-0.026440443
217	0xbe3deb62	-0.18546823
218	0x3d9e50dd	0.07730267
219	0x3df9710f	0.12179767
220	0xbd667c47	-0.056270864
221	0xbe266177	-0.16248117
222	0xbe00390d	-0.12521763
223	0xbd89427e	-0.067021355
224	0xbc44a7d8	-0.012002908
225	0x3da970ad	0.08273444
226	0x3dc489a8	0.09596568
227	0x3dbba2cf	0.09161913
228	0x3d07da3f	0.03316712
229	0x3e06cad1	0.13163306
230	0x3de7ce22	0.113186136
231	0x3e316273	0.17322712
232	0xbe336e04	-0.17522436
233	0x3ce0faa3	0.027463263
234	0x3d013c10	0.03155142
235	0xbb2c928f	-0.0026332473
236	0x3e3f6601	0.18691255
237	0x3da7521c	0.08169958
238	0x3e11481b	0.14187662
239	0xbe3fa3e4	-0.18714863
240	0xbc9155a9	-0.017741041
241	0xbe02f66b	-0.12789313
242	0x3d9b0219	0.075687595
243	0xbe36525b	-0.17804854
244	0xbddad035	-0.106842436
245	0x3e18db8f	0.14927505
246	0xbc176944	-0.009241406
247	0x3dd59f8d	0.104308225
248	0xbe58bfba	-0.21166888
249	0x3c568746	0.013093775
250	0xbc46e37f	-0.0121392
251	0xbde3b5b2	-0.1111864
252	0x3c1dc49c	0.009629395
253	0xbdeafc81	-0.114739425
254	0xbde2e757	-0.11079281
255	0xbcd72337	-0.026261909

fc2.weight f4 [128, 260]
0	0xbd087b10	-0.033320487
1	0xbdf6a910	-0.12043965
2	0xbdd69c43	-0.10479023
3	0x3d65e637	0.056127753
4	0xbd1a2cce	-0.037640385
5	0x3cfbdcc8	0.030744925
6	0x3d814aef	0.063131206
7	0xbda883a3	-0.08228233
8	0xbd92cfad	-0.07168517
9	0x3d7fd130	0.062455356
10	0xbdb232b4	-0.08701077
11	0xbe05d80b	-0.13070695
12	0xb99b659d	-0.00029639612
13	0x3d1d6038	0.03842184
14	0xbd6c5289	-0.0576959
15	0x3d2b26a3	0.041784894
16	0x3cfd84db	0.03094714
17	0x3ba534bd	0.0050416873
18	0xbe00b78c	-0.12570018
19	0x3dd212a1	0.102574594
20	0xbd379dee	-0.044828348
21	0xbd71ed5c	-0.059064254
22	0xbd723c29	-0.059139404
23	0x3cea18a5	0.028576205
24	0x3bd89132	0.0066091055
25	0xbcf41e7d	-0.029799694
26	0xbd20acc3	-0.03922726
27	0x3d30e1a9	0.043183956
28	0xba94db45	-0.0011356851
29	0xbdc4ca76	-0.09608929
30	0xbd93c892	-0.0721599
31	0xbd49f9db	-0.049310546
32	0x3cfc1170	0.030770034
33	0xbc5e5e98	-0.013572358
34	0xbda10888	-0.07862955
35	0x3da197eb	0.07890304
36	0xbd5e07a7	-0.054206517
37	0xbc65ae66	-0.014018631
38	0x3d86ec8c	0.065880865
39	0xbcd2893f	-0.02570021
40	0x3e24cdac	0.16094083
41	0x3b858586	0.004074755
42	0xbdbd20dc	-0.09234783
43	0xbd127f13	-0.03576572
44	0x3d8ef35c	0.06980011
45	0x3c024de0	0.007953137
46	0x3d865c50	0.06560576
47	0x3c0c1b03	0.008551362
48	0xbd604f5e	-0.05476319
49	0x3d17bcc5	0.03704526
50	0xbd4f0bf3	-0.050548505
51	0xbe49e943	-0.19717889
52	0xbcf9a930	-0.030476183
53	0xbdf27b81	-0.11839963
54	0xbdc286d5	-0.094983734
55	0xbd785822	-0.060630925
56	0xbd540994	-0.051766947
57	0xbd2538ee	-0.040337496
58	0x3ce46cb2	0.027883861
59	0x3d963cb9	0.07335801
60	0xbe13e3ce	-0.1444237
61	0x3e09fb56	0.13474783
62	0x3dfa2a1a	0.122150615
63	0xbc9375af	-0.018000452
64	0xbe5310a0	-0.2061181
65	0x3d3e135f	0.046405192
66	0x3dddaf44	0.10824445
67	0xbd893ad3	-0.06700673
68	0xbc0eaae1	-0.008707733
69	0xbd6b0429	-0.057377014
70	0x3cb0360a	0.021510143
71	0xbcbfde34	-0.023421384
72	0xbc774bda	-0.015093768
73	0x3bf22cd5	0.0073905983
74	0x3da75789	0.08170993
75	0xbd6ba598	-0.05753097
76	0xbd3904c4	-0.04517056
77	0xbdb50138	-0.08838123
78	0xbdc63149	-0.09677369
79	0x3d4fa062	0.050690062
80	0x3cb576a4	0.022151299
81	0xbb5ccb44	-0.0033690492
82	0xbd865d73	-0.06560793
83	0xbe1aa5e7	-0.15102349
84	0x3d9b0c6d	0.075707294
85	0xbdfd19b2	-0.123584166
86	0x3d557819	0.052116487
87	0x3d84ca29	0.064838715
88	0x3c282efd	0.010265109
89	0x3ca64baf	0.02029976
90	0x3dc21af3	0.094777964
91	0x3da73a9b	0.08165475
92	0x3c28269a	0.01026311
93	0xbd925308	-0.07144743
94	0xbdaa03b2	-0.08301486
95	0xbdea376a	-0.11436351
96	0xbe21bf62	-0.15795663
97	0xbd8f99e2	-0.07011773
98	0xbc3d7a3d	-0.011564788
99	0x3e044b1d	0.12919278
100	0xbe236857	-0.15957771
101	0xbe0351a5	-0.12824114
102	0x3cfffd76	0.03124879
103	0x3be845f1	0.007088416
104	0x3d80f84e	0.0629736
105	0xbe3d413b	-0.18481915
106	0xbd0f221b	-0.034944635
107	0xbe097e21	-0.1342702
108	0xbda42907	-0.08015638
109	0xbd99bba6	-0.07506494
110	0x3d8f2a76	0.06990521
111	0x3daf4ed5	0.08559958
112	0xb9a1b116	-0.00030840252
113	0xbdace29b	-0.08441659
114	0xbd59a43e	-0.05313515
115	0xbe6e4707	-0.23269282
116	0x3e1dd4e4	0.15413243
117	0xbbb5ed9e	-0.005552008
118	0x3de0726e	0.10959326
119	0xbdb60462	-0.08887555
120	0xbd0bf0a2	-0.034165032
121	0xbd4990b3	-0.04921026
122	0xbd2f2a7f	-0.042765137
123	0x3c7d0f0a	0.01544548
124	0xbdbaf703	-0.09129145
125	0xbb63f8f4	-0.0034785839
126	0xbdeab423	-0.114601396
127	0xbd9f4726	-0.07777242
128	0x3d80d28e	0.0629016
129	0xbdf1bf4e	-0.118040666
130	0x3c2a3963	0.010389659
131	0xbd5b7d8d	-0.05358653
132	0xbcdd8c86	-0.027044546
133	0xbe2bdf3e	-0.16784379
134	0xbbbd6754	-0.00578014
135	0xbdd4cbf5	-0.10390464
136	0x3d446e47	0.04795673
137	0x3d326132	0.043549724
138	0x3c003c41	0.007826866
139	0xbd988d75	-0.07448856
140	0x3c89d486	0.016824972
141	0xbda0d4fa	-0.07853122
142	0xbbdafca7	-0.0066829505
143	0x3d6837c0	0.056693792
144	0xba795761	-0.00095116167
145	0x3bb90d01	0.005647302
146	0xbdd36760	-0.103224516
147	0xbd9daf9b	-0.0769951
148	0xbd2a6962	-0.041604407
149	0xbc9039df	-0.01760572
150	0xbd4f4564	-0.050603285
151	0x3b096907	0.0020967142
152	0xbca8966b	-0.020579537
153	0xbdecefb6	-0.11569159
154	0x3d8a9f60	0.067686796
155	0xbbbaf9a9	-0.0057060313
156	0xbc87f76a	-0.016597468
157	0xbd02dd85	-0.03194954
158	0xbd45d9bc	-0.04830335
159	0xbc6e733e	-0.014553843
160	0xbd0a9fe3	-0.033843886
161	0xbd6f48d6	-0.05841907
162	0xbd8c3cc6	-0.06847529
163	0x3c60a0ee	0.013710244
164	0xbda01cd3	-0.07817998
165	0xbe3b27ea	-0.18276945
166	0xbcd5fb6c	-0.026120864
167	0x3da7d4d9	0.08194894
168	0xbc96f44c	-0.018427037
169	0x3d948f0d	0.07253847
170	0x3d9bfa6a	0.07616122
171	0xbd57c276	-0.052675687
172	0xbdb2a872	-0.08723535
173	0x3da9a445	0.08283285
174	0x3d9c98d6	0.07646339
175	0x3cf5b4ca	0.029993434
176	0xbdbda232	-0.09259452
177	0xbbd86bc3	-0.006604643
178	0xbe43d3dd	-0.19123788
179	0xbdacf048	-0.084442675
180	0xbe0e5c81	-0.13902475
181	0x3da3d8bd	0.08000324
182	0x3b20fa5c	0.0024563288
183	0xbd3bce51	-0.045851056
184	0xba818e7c	-0.0009884383
185	0x3da1ff6c	0.07910046
186	0xbda2092c	-0.07911906
187	0x3d1ec29d	0.038759816
188	0x3d4908db	0.04908071
189	0xbe3d8063	-0.18506007
190	0xbd35463a	-0.044256426
191	0xbda2add6	-0.07943313
192	0xbdea2f8d	-0.11434851
193	0x3d7eabed	0.06217568
194	0xbe48c85e	-0.19607684
195	0x3d198092	0.03747613
196	0x3c067d41	0.008208574
197	0x3c7cfdb3	0.015441346
198	0xbdd93b1f	-0.106069796
199	0x3ca9a858	0.020710155
200	0xbd257e66	-0.040403746
201	0x3d38ee71	0.04514927
202	0xbdc4f2e2	-0.09616639
203	0xbd23311b	-0.039841752
204	0xbd595c3f	-0.05306649
205	0x3d88a7ed	0.06672654
206	0xbd6750b7	-0.05647346
207	0x3d8dcd80	0.06923962
208	0x3d332299	0.043734167
209	0x3d311c4d	0.04323988
210	0x3d274245	0.040834684
211	0x3cc08841	0.02350247
212	0x3e00fc2c	0.12596196
213	0xbdaa9240	-0.08328676
214	0xbb4025d4	-0.0029319422
215	0x3d79abae	0.060954742
216	0xbe51b573	-0.20479374
217	0xbe118d06	-0.14213952
218	0x3e060f5f	0.13091801
219	0x3be19b78	0.0068849884
220	0xbd5a981d	-0.053367723
221	0xbd202a28	-0.039102703
222	0xbbc1eabd	-0.0059178756
223	0xbc8fec0d	-0.017568612
224	0x3e1cdc79	0.15318479
225	0x3c0b59fc	0.008505341
226	0x3c807a5b	0.015683344
227	0xbd7726bb	-0.06033967
228	0x3ca8a376	0.020585757
229	0x3dca0527	0.09864264
230	0xbd17a199	-0.037019346
231	0x3db6f11c	0.08932707
232	0xbc530c90	-0.012881413
233	0xbdf62eff	-0.120206825
234	0x3b87805f	0.004135176
235	0x3c9139d4	0.01772777
236	0xbcdc9e6e	-0.026931014
237	0x3e06fad1	0.13181616
238	0xbd721c35	-0.05910893
239	0x3cb67f98	0.022277638
240	0xbc0e2a9d	-0.008677152
241	0xbdc649ef	-0.096820705
242	0x3d7f1a98	0.06228122
243	0xbd675335	-0.056475837
244	0x3d2029dc	0.03910242
245	0xbd64169f	-0.055685636
246	0x3c5e8b5d	0.0135830315
247	0xbd0bd9a8	-0.03414312
248	0x3cd72d64	0.026266761
249	0xbd955734	-0.07292023
250	0xbcf6c313	-0.030122316
251	0x3e02002c	0.12695378
252	0xbd2bb0e9	-0.04191676
253	0xbe21be2c	-0.15795201
254	0x3d794988	0.06086114
255	0xbd241edf	-0.040068503

fc2.bias f4 [128]
0	0x3cab9478	0.020944819
1	0xbd328360	-0.04358232
2	0xbc61acad	-0.013774079
3	0xbd25c255	-0.040468533
4	0xbd903e78	-0.07043165
5	0xbc5768b6	-0.013147524
6	0xbd9c10d0	-0.07620394
7	0x3c048f96	0.008090874
8	0x3ceddc55	0.029035727
9	0x3d9d59b8	0.07683128
10	0xbbccd6dd	-0.0062511996
11	0x3db44ffb	0.088043176
12	0x3d8f6213	0.07001128
13	0xbd45eb26	-0.04831996
14	0x3dd8ea25	0.105915345
15	0xbcc6b84d	-0.024257803
16	0xbda7d834	-0.08195534
17	0xbd00abfa	-0.03141401
18	0x3db35931	0.08757246
19	0xbd1106a4	-0.035406724
20	0x3d98f524	0.07468632
21	0x3bc9aafb	0.0061544157
22	0xbdcc8d82	-0.09987928
23	0x3e0001e9	0.12500729
24	0x3de46854	0.111527115
25	0xb8a39b2e	-7.80135e-05
26	0x3d5f8b42	0.054576166
27	0xbdba73b1	-0.09104098
28	0x3d3727fe	0.044715874
29	0x3acb6334	0.0015517236
30	0x3dca94d0	0.09891665
31	0x3cdaf9db	0.026730468
32	0xbd616be2	-0.055034526
33	0xbd173ad5	-0.03692134
34	0xbc24c2fc	-0.0100562535
35	0xbc753ba5	-0.014967834
36	0x3e1f0781	0.15530206
37	0x3d47fa90	0.04882294
38	0xbd201fa5	-0.03909268
39	0xbcf79ea3	-0.030227011
40	0x3d6f1435	0.05836888
41	0x3cd6d4f9	0.0262246
42	0xbce7e12c	-0.028305613
43	0x3df6636d	0.12030683
44	0x3d3654f6	0.04451462
45	0x3dbd42c8	0.09241253
46	0x3d959038	0.07302898
47	0xbd85b943	-0.065294765
48	0x3cdfa291	0.027299197
49	0x3db66b1c	0.08907148
50	0x3e03e4c7	0.1288024
51	0xbc1c4e68	-0.009540178
52	0x3ce458d7	0.027874393
53	0x3d603e45	0.054746885
54	0x3b12ce3f	0.0022400764
55	0x3d359c2a	0.044338383
56	0x3bddb150	0.006765522
57	0xbd3b0493	-0.04565866
58	0x3d5742db	0.052553993
59	0x3dc2087c	0.094742745
60	0xbd3292c6	-0.043597005
61	0xbbe63eac	-0.007026514
62	0x3d42c9e5	0.047555823
63	0xbcd68b20	-0.026189387
64	0xb9d3f4af	-0.0004042736
65	0x3d5fb157	0.054612484
66	0x3d14d994	0.03634031
67	0x3d685618	0.05672273
68	0x3d96eb4c	0.07369098
69	0xbb9f389f	-0.0048590447
70	0x3dc362fb	0.095403634
71	0xbda85542	-0.08219387
72	0x3d4b4016	0.049621664
73	0xbd620059	-0.055176113
74	0xbd0a5b0f	-0.033778246
75	0x3d647ea9	0.055784855
76	0x3cc33c89	0.023832576
77	0x3de7da4a	0.11320932
78	0x3dbe4a44	0.09291509
79	0x3bb77831	0.0055990447
80	0xbd6ac0a8	-0.057312638
81	0xbca77285	-0.02044035
82	0x3db4aab1	0.08821619
83	0x3d5f3ed8	0.05450329
84	0xbc7ed8cd	-0.015554619
85	0xbc854375	-0.016267518
86	0x3c140f2b	0.009036819
87	0x3cfd5fa3	0.030929392
88	0xbc815bb2	-0.015790794
89	0x3e090cb2	0.13383749
90	0xbd851340	-0.06497812
91	0xbd4c6630	-0.04990214
92	0xbd2880bb	-0.041138392
93	0xbd1f5697	-0.038900938
94	0xbd5367c0	-0.051612616
95	0xbc858ba6	-0.016301941
96	0xbd0a55e3	-0.033773314
97	0xbbd4e472	-0.0064969594
98	0xbd838fc0	-0.064239025
99	0x3ce49635	0.027903656
100	0x3d7d155d	0.06178795
101	0x3c789f32	0.015174674
102	0xbcc4e4eb	-0.024034938
103	0x3c55a8f1	0.013040767
104	0x3c2bbc8b	0.010481964
105	0x3cffa62d	0.031207168
106	0x3cf05c88	0.029340997
107	0xbd951759	-0.07279844
108	0xbb5bbddc	-0.0033529913
109	0x3db3f0f7	0.08786195
110	0x3bb3d01a	0.005487454
111	0x3bac3758	0.005255621
112	0x3c03ff83	0.008056524
113	0x3c8b4d84	0.017004736
114	0x3a4eae63	0.0007884262
115	0x3d6e1a40	0.058130503
116	0xbd112882	-0.035439022
117	0xbb8950a4	-0.0041905213
118	0xbda067ce	-0.07832299
119	0x3d040da6	0.03223958
120	0x3b45415a	0.0030098767
121	0xbd7066a0	-0.05869162
122	0x3d4908e4	0.049080744
123	0x3d1321c5	0.035920877
124	0xbd7b712b	-0.061387222
125	0xbcee9e65	-0.029128263
126	0xbda7a253	-0.08185258
127	0xbc4b654d	-0.012414289

fc3.weight f4 [1, 128]
0	0xbe0cf221	-0.1376424
1	0xbe71648e	-0.23573515
2	0x3d9d1f66	0.076720044
3	0x3dc2db4b	0.09514483
4	0xbe8bb3ed	-0.2728571
5	0x3d636cf4	0.055523828
6	0xbe85a444	-0.26101887
7	0x3e107ab2	0.14109305
8	0xbe7b8c6e	-0.24565288
9	0x3db7a8af	0.08967721
10	0x3e1e7626	0.15474758
11	0x3d97b115	0.074068226
12	0x3d90de83	0.07073691
13	0xbd90f04e	-0.070770845
14	0x3ded8752	0.11598076
15	0xbdca5c4f	-0.09880888
16	0xbe5e0539	-0.2168168
17	0xbdb1b250	-0.086765885
18	0x3d6735a5	0.056447644
19	0x3da08b40	0.0783906
20	0x3db1c693	0.08680453
21	0xbdc7a11b	-0.09747525
22	0xbdb53531	-0.08848036
23	0x3d43645d	0.047703136
24	0x3de14c2e	0.11000858
25	0x3e3d9975	0.1851557
26	0x3d59a887	0.053139236
27	0xbdaf9399	-0.08573074
28	0x3d9aae58	0.07552785
29	0x3e025357	0.12727104
30	0x3db7ab79	0.08968253
31	0x3e0bd335	0.13654788
32	0xbdf6be52	-0.120480195
33	0x3da50947	0.0805841
34	0x3d4d38aa	0.050102867
35	0xbdd0fcba	-0.10204454
36	0x3d923c0e	0.07140361
37	0x3e020377	0.12696634
38	0x3d7c4634	0.06159039
39	0x3de9c9a1	0.11415411
40	0xbe61e6a5	-0.2206064
41	0x3d6c0653	0.05762322
42	0x3d905526	0.07047491
43	0x3d6185d9	0.055059288
44	0x3d5062ad	0.050875355
45	0x3dc00afc	0.09377095
46	0x3db29b43	0.0872102
47	0xbded941b	-0.116005145
48	0xbdc77ec8	-0.097409785
49	0x3d6e22f2	0.058138795
50	0x3d6de424	0.0580789
51	0xbd926905	-0.07148937
52	0x3de8dfee	0.11370836
53	0xbdb1f95f	-0.08690142
54	0x3d8aa3e2	0.067695394
55	0x3da26506	0.07929425
56	0x3d5daf98	0.054122537
57	0xbe4f7f54	-0.20263416
58	0x3e1b392f	0.15158533
59	0x3d0fbf69	0.035094652
60	0xbe42a9a3	-0.19010024
61	0x3d6b4e67	0.057447817
62	0xbe0ea068	-0.13928378
63	0xbe1f31f8	-0.15546405
64	0xbde15249	-0.11002023
65	0x3dcb496d	0.09926114
66	0xbdad498c	-0.084612936
67	0xbddd546f	-0.1080712
68	0x3d8edd65	0.069758214
69	0xbd4bc263	-0.04974593
70	0x3db04aa9	0.0860799
71	0xbe6e90e7	-0.23297463
72	0x3d90ff61	0.0707996
73	0xbe4aeb3b	-0.19816296
74	0xbe5a9a7a	-0.2134799
75	0x3da89c12	0.08232893
76	0x3e0317a8	0.12801993
77	0x3d584ea4	0.052809373
78	0x3d62eb05	0.055399913
79	0x3dc4ae2c	0.09603533
80	0xbd59cbf4	-0.05317302
81	0x3d6f8778	0.058478802
82	0x3e0abcdc	0.13548607
83	0x3dadd112	0.084871426
84	0xbe2695b1	-0.1626804
85	0xbe4883aa	-0.19581476
86	0x3e06a567	0.13149033
87	0xbde2b92b	-0.11070474
88	0x3dc01369	0.09378702
89	0x3db2ce4d	0.08730755
90	0xbd672e78	-0.0564408
91	0x3d9c9e02	0.07647325
92	0xbe39de95	-0.18151315
93	0xbd3edd49	-0.046597753
94	0x3e0dd811	0.13851954
95	0x3d698c92	0.057018824
96	0x3d6dcb65	0.0580553
97	0xbd7b43fe	-0.06134414
98	0xbdcb9133	-0.09939804
99	0xbdc49a22	-0.09599711
100	0x3dab3c51	0.08361114
101	0xbdb894e2	-0.09012772
102	0xbdc090b4	-0.094026
103	0x3da8fc8b	0.08251294
104	0xbdc7c17d	-0.09753702
105	0x3d6e0bb9	0.05811665
106	0x3d7dd87a	0.061974026
107	0xbe43d5b5	-0.19124492
108	0x3db245e1	0.087047346
109	0x3d779704	0.060446754
110	0x3d5b411f	0.0535289
111	0xbe098a3f	-0.13431643
112	0x3e83d763	0.25750265
113	0xbd70d9a8	-0.058801323
114	0xbd1c659a	-0.038182832
115	0x3cfd45c7	0.030917061
116	0xbd4d742e	-0.050159626
117	0x3db11502	0.08646585
118	0xbe586aef	-0.21134542
119	0xbe4ed5f6	-0.20198807
120	0x3ddbf32b	0.1073974
121	0xbd0ac8f9	-0.03388307
122	0x3d7bbec7	0.061461236
123	0x3d8a1cfd	0.0674381
124	0xbe43cbe1	-0.19120742
125	0xbd9821af	-0.074283
126	0xbe236770	-0.15957427
127	0xbdc99f8d	-0.09844885
