DeepReinforcementLearning/ContinuousControl/checkpoint_actor.pth (torch_old, 169452 bytes, 6 tensors)

fc1.weight f4 [256, 33]
0	0x3bdeaa5c	0.0067952108
1	0x3d8d8206	0.06909566
2	0x3db883c9	0.09009511
3	0xbd288547	-0.04114273
4	0xbcb11e9b	-0.02162104
5	0x3d2d3313	0.042285036
6	0x3cb1d94b	0.021710059
7	0xbd4203f8	-0.047367066
8	0x3e55ae4f	0.20867275
9	0xbd14d3de	-0.036334865
10	0xba3f2d4d	-0.0007292822
11	0xbd5529bc	-0.052041754
12	0xbd065858	-0.032799095
13	0xbd9a27f3	-0.07527151
14	0x3e1cdefe	0.1531944
15	0x3d3e8b70	0.046519697
16	0x3ce4380c	0.027858756
17	0xbe0c06d0	-0.13674474
18	0xbd84c71a	-0.06483288
19	0x3aeaf208	0.0017924914
20	0x3dc1189b	0.09428521
21	0x3d9b4a7c	0.07582566
22	0x3cc2cc47	0.023779048
23	0x3c9e94af	0.019358007
24	0x3e06e5a7	0.13173543
25	0xbc2aa330	-0.0104148835
26	0x3ddda942	0.10823299
27	0x3e19fc06	0.15037546
28	0x3d983b06	0.07433133
29	0x3c6de8a0	0.014520794
30	0xbe21aee0	-0.15789366
31	0x3d4cc7ce	0.049995236
32	0x3e6d59a2	0.23178723
33	0x3db81041	0.08987475
34	0x3d3c7bcb	0.046016496
35	0xbc8a34d4	-0.016870894
36	0x3d8fd249	0.070225306
37	0x3da4b9a3	0.0804322
38	0xbca479d5	-0.020077625
39	0xbdbeb0a5	-0.09311036
40	0xbd8ce85c	-0.068802565
41	0xbe0fd766	-0.14047012
42	0x3e0129c8	0.12613595
43	0xbd9a6679	-0.07539076
44	0xbd932050	-0.071838975
45	0x3c7305f1	0.0148329595
46	0x3e1e5be2	0.15464738
47	0x3d60d399	0.054889295
48	0x3dd317b9	0.10307259
49	0xbd021aab	-0.031763714
50	0xbd64e262	-0.055879958
51	0xbdac0c8c	-0.084008306
52	0x3d5c652a	0.053807415
53	0x3c5721e7	0.013130642
54	0x3b4dcfc3	0.0031404353
55	0x3d130b48	0.03589943
56	0xbda4be7e	-0.08044146
57	0x3bbd1ed7	0.0057714987
58	0x3d4796a9	0.048727665
59	0xbe794543	-0.24342827
60	0x3d74e798	0.059791178
61	0xbbe6e77b	-0.0070466376
62	0xbcb1a5a0	-0.021685421
63	0xbd59c0c9	-0.05316237
64	0x3cd90d64	0.026495643
65	0xbf822e93	-1.0170463
66	0xbc03f451	-0.008053855
67	0xbdc2a2fb	-0.09503742
68	0x3d462b6b	0.04838125
69	0x3ccb9f29	0.024856167
70	0xbcaca780	-0.021075964
71	0xb807897f	-3.231456e-05
72	0x3c9784eb	0.018495997
73	0xbc3b8119	-0.0114443535
74	0xbdd67ba6	-0.10472803
75	0x3d32395f	0.043511745
76	0x3dee097c	0.11622903
77	0xbd9d0071	-0.076661
78	0x3d4b1279	0.049578164
79	0xbdce5b56	-0.10076015
80	0x3e47790b	0.19479768
81	0x3ddb3379	0.10703177
82	0x3e175429	0.14778198
83	0x3dd0da8b	0.10197934
84	0xbbdcc684	-0.006737532
85	0xbaca5206	-0.0015435822
86	0xbe0cfe07	-0.13768779
87	0xbcece934	-0.028919794
88	0xbe6e7e9f	-0.2329049
89	0x3d918230	0.071049094
90	0x3a2bbe8b	0.00065515254
91	0xbd5959ff	-0.053064343
92	0x3da057c3	0.07829239
93	0xbd2113b9	-0.03932545
94	0xbdc43218	-0.09579867
95	0xbcec12c4	-0.028817542
96	0x3b7def7f	0.0038747487
97	0x3d2f41c0	0.042787313
98	0x3d722ede	0.059126727
99	0xbd80f49c	-0.062966555
100	0xbe25e3a5	-0.16200121
101	0x3d4d49fa	0.050119378
102	0x3dcf0198	0.10107726
103	0xbd12c0d1	-0.035828415
104	0xbd6edab8	-0.058314055
105	0xbd4a7423	-0.049427163
106	0x3db49cda	0.088189796
107	0xbdaa8536	-0.08326189
108	0x3c90773d	0.017634982
109	0xbc43223e	-0.011910019
110	0xbe023c3b	-0.12718289
111	0xbdc89a90	-0.097951055
112	0xb8cfad48	-9.902805e-05
113	0xbd472c57	-0.04862627
114	0xbd0e7675	-0.03478094
115	0xbd355e6f	-0.044279512
116	0xbc992325	-0.018693516
117	0xbc5791ac	-0.0131572895
118	0x3cb82ca7	0.02248223
119	0x3e2a86d7	0.16653
120	0xbda0a7e1	-0.0784452
121	0xbdc04fbf	-0.0939021
122	0x3d16fec2	0.03686405
123	0x3d78ad2d	0.06071203
124	0xbc3e9533	-0.011632252
125	0xbd64dc42	-0.055874117
126	0xbdb9d7a6	-0.09074335
127	0xbb04b32b	-0.0020248394
128	0xbd4914c8	-0.049092084
129	0xbb5648ad	-0.0032697127
130	0x3d2ab142	0.041672952
131	0x3d7d542f	0.06184786
132	0x3d9d1279	0.07669539
133	0x3e060501	0.13087846
134	0x3d1b2ff3	0.037887525
135	0x3d70f219	0.058824632
136	0x3d4199e0	0.047265887
137	0x3c0b5b2d	0.008505625
138	0xbdbb3cf7	-0.091424875
139	0x3d1825a4	0.037145272
140	0xbea568f4	-0.32306635
141	0x3cafb316	0.0214477
142	0x3d4b903c	0.0496981
143	0xbd787bb9	-0.060664866
144	0x3cc7225e	0.02430838
145	0x3d9bef17	0.07613962
146	0x3e1c951b	0.15291254
147	0x3e00a1d7	0.12561737
148	0xbdc735c3	-0.09727051
149	0xbc9fff88	-0.019531026
150	0x3dadefef	0.08493029
151	0x3d906383	0.0705023
152	0x3d6616c9	0.056174073
153	0xbdca0fc3	-0.098662876
154	0xbdedb5be	-0.1160693
155	0x3da22c1d	0.0791857
156	0x3e04b759	0.12960567
157	0x3db27b82	0.087149635
158	0x3d051e39	0.032499526
159	0xbc3bbc38	-0.011458449
160	0xbceca21f	-0.0288859
161	0x3c821748	0.015880242
162	0xbc94e701	-0.018176557
163	0x3cba36cc	0.022731207
164	0x3eb3f078	0.351444
165	0xbe28c40b	-0.16481034
166	0xbe33c763	-0.17556529
167	0xbe1671d4	-0.1469186
168	0xbcab2ec0	-0.020896316
169	0x3da73891	0.08165086
170	0xbcfaa5d9	-0.03059666
171	0xbd3ad747	-0.04561546
172	0xbe0c4ed7	-0.1370195
173	0xbdb70969	-0.08937342
174	0xbdda5039	-0.106598325
175	0xbd817d81	-0.06322766
176	0xbd65d092	-0.05610711
177	0x3c8a2ca7	0.016866995
178	0x3dc10158	0.094240844
179	0xbe1608c1	-0.14651777
180	0x3d26dcf2	0.040738054
181	0xbd4e80de	-0.050415866
182	0x3d8b89ec	0.06813416
183	0xbc4825e5	-0.012216066
184	0x3cdf0372	0.027223323
185	0x3d0c1e66	0.034208678
186	0x3d5c1966	0.05373516
187	0x3cfc95bf	0.030833123
188	0xbd38ad92	-0.045087405
189	0xbd779bcc	-0.060451314
190	0x3c49d024	0.012317691
191	0xbda43421	-0.08017755
192	0xbdec705b	-0.115448676
193	0x3de7f89d	0.11326716
194	0xbd39996c	-0.04531233
195	0x3e1ce15e	0.15320346
196	0xbd0a32e2	-0.033739932
197	0x3b8f86c3	0.0043800785
198	0x3d9a9f63	0.07549932
199	0xbd378cb2	-0.044811912
200	0xbd0055fa	-0.031331994
201	0xbc383a5a	-0.011244381
202	0x3e10b7cb	0.14132611
203	0xbd658392	-0.05603368
204	0xbdbc80f4	-0.09204283
205	0x3e0f0663	0.1396728
206	0x3e94c4b5	0.29056326
207	0x3df7f298	0.12106818
208	0x3e2bde32	0.1678398
209	0xbaba67dd	-0.0014221627
210	0xbdae7e99	-0.0852024
211	0xbda82c78	-0.08211607
212	0x3d94ef27	0.07272177
213	0xbce7cb51	-0.028295191
214	0x3df36ceb	0.11886009
215	0x3c877e45	0.016539702
216	0x3ded57ab	0.11588987
217	0x3b89356a	0.0041872757
218	0x3ce7f21a	0.028313685
219	0xbd767e4f	-0.06017905
220	0xbdbe1eea	-0.0928324
221	0xbdbbe6d4	-0.09174886
222	0x3c82c958	0.015965149
223	0xbda8d7cd	-0.08244286
224	0x3deafc92	0.11473955
225	0x3a73f235	0.0009305806
226	0xbdb8e5c7	-0.090282016
227	0x3d16fafc	0.03686045
228	0x386dab48	5.666472e-05
229	0x3c2ff328	0.010739125
230	0xbe9a8653	-0.30180606
231	0xbc8c5186	-0.017128717
232	0xbd1c05f9	-0.038091633
233	0xbddd3dce	-0.10802804
234	0xbc4cb12d	-0.012493414
235	0x3d187a9a	0.037226297
236	0x3d16d0a8	0.036820084
237	0xbd58da65	-0.052942652
238	0x3e01a86f	0.12661909
239	0xbddf18b4	-0.108933836
240	0x3d88204a	0.06646784
241	0x3dd0cb32	0.101950064
242	0x3d47e42e	0.048801593
243	0xbdbdadaf	-0.09261643
244	0x3d85a64e	0.06525861
245	0x3ddd3ca1	0.1080258
246	0xbd49290a	-0.049111404
247	0x3cbc44e0	0.02298206
248	0xbc53c64c	-0.012925696
249	0x3da2d1bf	0.07950162
250	0xbd3ea0d3	-0.046540093
251	0xbd8bd8b6	-0.06828444
252	0x3df04b8e	0.11733161
253	0xb99eab2b	-0.00030263638
254	0x3e392a2b	0.18082492
255	0x3d1c6877	0.038185563

fc1.bias f4 [256]
0	0x3cc2e4e5	0.023790786
1	0xbe5b3048	-0.21405137
2	0xbd82dbe6	-0.063895985
3	0x3df1ed93	0.11812892
4	0x3d86ef60	0.06588626
5	0x3e64f225	0.22357996
6	0xbd5b9dd4	-0.053617314
7	0x3e209181	0.15680505
8	0x3e60f2b5	0.21967585
9	0x3b1114fb	0.002213775
10	0x3d206e81	0.039167885
11	0x3d96fd1c	0.073724955
12	0xbe27084b	-0.16311757
13	0x3cbd3c59	0.023100065
14	0x3cbaba35	0.022793869
15	0xbdd8a61d	-0.105785586
16	0x3caf3911	0.021389516
17	0x3d00b442	0.031421907
18	0x3dcdae59	0.1004302
19	0x3e5616c4	0.20907122
20	0xbe2bcbd0	-0.16776967
21	0xbd7b99a5	-0.061425824
22	0x3d836eca	0.06417616
23	0x3e0adbd9	0.13560428
24	0xbe021dfb	-0.12706749
25	0x3e4dc14f	0.20093273
26	0x3e29aea2	0.16570523
27	0x3df964cf	0.12177431
28	0xbe2e2b46	-0.17008695
29	0x3def0a3e	0.116718754
30	0xbe1c9cd9	-0.15294208
31	0x3da60d63	0.08108022
32	0x3e241ed2	0.16027382
33	0xbe1d878d	-0.1538374
34	0x3e23849f	0.1596856
35	0x3de85bf6	0.11345665
36	0x3dd58ca3	0.10427215
37	0x3c1ade83	0.009452465
38	0xbc94911f	-0.018135605
39	0x3e859838	0.26092696
40	0xbe307fa9	-0.17236198
41	0x3e02477a	0.12722579
42	0x3abcf70d	0.0014416889
43	0xbe581de4	-0.21105152
44	0xbc9b6323	-0.01896817
45	0x3d18e804	0.037330642
46	0x3d8a9b58	0.06767911
47	0x3dfd215e	0.1235988
48	0xbd352450	-0.044224083
49	0xbdcbd0c6	-0.0995193
50	0x3dbe2a0f	0.09285366
51	0x3df4a195	0.11944882
52	0x3da7986f	0.08183371
53	0x3d861dad	0.06548629
54	0x3d35e1be	0.044404738
55	0x3dedb90b	0.1160756
56	0xbd92a729	-0.071607895
57	0xbca26fa2	-0.019828621
58	0xbe2bd023	-0.16778617
59	0x3e104cc8	0.1409179
60	0x3b2e2a90	0.0026575662
61	0x3c958b05	0.018254766
62	0xbe108f92	-0.14117268
63	0xbd3e4675	-0.04645391
64	0x3e81b35e	0.2533216
65	0x3d9b5198	0.07583922
66	0x3d51b038	0.051193446
67	0xbe3a5b81	-0.18198968
68	0xbda788e9	-0.081804104
69	0xbc9cf144	-0.019158013
70	0x3b8a1781	0.0042142277
71	0xbdfdd012	-0.12393202
72	0x3d27b48c	0.040943667
73	0xbc479cc4	-0.012183372
74	0x3e23152d	0.15926047
75	0x3e89e5c3	0.26933107
76	0xbe401085	-0.18756302
77	0xbd83166a	-0.064007595
78	0x3e809db3	0.25120315
79	0x3e059621	0.13045551
80	0x3d50dfd7	0.05099472
81	0xbd560fa5	-0.052261014
82	0xbe054eb4	-0.13018304
83	0xbd2df0a9	-0.04246584
84	0x3dae0200	0.08496475
85	0xbd0fa381	-0.03506804
86	0x3d3da8d1	0.046303574
87	0x3da6035b	0.08106109
88	0x3d9508f2	0.07277097
89	0x3d2b052d	0.041752983
90	0xbe39defb	-0.18151467
91	0x3df55c69	0.119805165
92	0x3e0a56c4	0.13509661
93	0xbdf94786	-0.12171845
94	0x3dd06437	0.101753645
95	0x3d821c84	0.06353095
96	0x3d94946a	0.0725487
97	0xbd64ec91	-0.05588967
98	0x3d3e7eb4	0.046507552
99	0x3ddaf69c	0.10691568
100	0x3d864bce	0.06557427
101	0x3dde39b0	0.10850847
102	0xbd8ae271	-0.067814715
103	0x3ca93a53	0.020657694
104	0xbdb8e9b7	-0.090289526
105	0x3dc26052	0.09491028
106	0xbd9e1426	-0.07718687
107	0xbe313972	-0.1730707
108	0xbd897d3a	-0.06713338
109	0x3d0361c2	0.03207565
110	0xbda4ac15	-0.080406345
111	0x3e7bf51a	0.24605218
112	0x3cfe0527	0.031008316
113	0x3bdbec91	0.0067115505
114	0x3a893f8f	0.0010471212
115	0xbe47a2cd	-0.19495697
116	0xbdf24c45	-0.118309535
117	0x3e31df6b	0.17370383
118	0xbc5ebc2a	-0.0135946665
119	0xbe7e23a7	-0.24818288
120	0xbcdb89af	-0.026799051
121	0xbdc62dec	-0.09676728
122	0xbda566c3	-0.08076241
123	0xbe005842	-0.12533668
124	0xbd3cbb84	-0.046077266
125	0x3df6805f	0.120362036
126	0xbdc851ba	-0.09781213
127	0xbd361419	-0.04445276
128	0x3d83b985	0.064318694
129	0x3d93da32	0.07219352
130	0x3d55584e	0.052086167
131	0x3d24fc72	0.040279813
132	0x3e139b71	0.14414765
133	0x3caa9f34	0.020827867
134	0x3e3a1694	0.18172675
135	0xbe026318	-0.12733114
136	0x3d443bd0	0.047908604
137	0x3e05d68c	0.13070124
138	0xbd375979	-0.044763062
139	0x3d46e356	0.04855665
140	0xbbae7403	-0.0053238883
141	0xbe090292	-0.13379887
142	0x3e14bac1	0.14524366
143	0xbd9ec4b4	-0.07752362
144	0x3e4507d4	0.19241267
145	0x3e8bfa81	0.27339557
146	0x3dff9607	0.12479787
147	0x3e44ebff	0.1923065
148	0xbce56302	-0.028001312
149	0xbca40dfd	-0.020026201
150	0xbde735f2	-0.11289586
151	0x3dc71d29	0.09722359
152	0xbd49aec6	-0.049238943
153	0x3e4acef5	0.1980551
154	0x3e63abd9	0.22233523
155	0x3dd65249	0.104649134
156	0xbdef5d10	-0.11687672
157	0xb80f5161	-3.4169647e-05
158	0x3d786421	0.060642365
159	0x3e12d64f	0.14339565
160	0xbdc3af93	-0.095549725
161	0x3e591c67	0.21202241
162	0x3d9cef76	0.07662861
163	0x3d7c6133	0.061616134
164	0xbe74b2ab	-0.23896281
165	0x3d40d79d	0.047080625
166	0x3e18c57f	0.14919089
167	0xbd2455ca	-0.040120877
168	0x3e134aaa	0.14383951
169	0xbce508a1	-0.027958216
170	0xbe6c3f7b	-0.23071091
171	0x3d5e582e	0.054283313
172	0xbd41a93c	-0.047280535
173	0xbd8a7354	-0.06760278
174	0xbd75e53c	-0.060033068
175	0x3e25efa0	0.16204691
176	0xbd0d34a6	-0.034474038
177	0x3e324360	0.17408514
178	0xbdd45bfe	-0.103691086
179	0x3d76ed8d	0.06028514
180	0x3d69c0d1	0.05706865
181	0x3dc3d84e	0.09562741
182	0x3dcab3dc	0.09897587
183	0xbcb9e112	-0.02269033
184	0xbe15806c	-0.1459977
185	0x3d6bac3e	0.05753731
186	0xbe46ed48	-0.19426453
187	0x3df48622	0.11939646
188	0xbd0bfd1d	-0.034176935
189	0x3d8e836a	0.06958659
190	0xbe341274	-0.17585164
191	0x3e105c74	0.14097768
192	0xbe1afcc2	-0.15135482
193	0x3c4c23ed	0.012459737
194	0xbdd3c538	-0.10340351
195	0xbcec594f	-0.02885118
196	0x3e4f1b33	0.2022522
197	0xbdd2d939	-0.10295338
198	0xbe09e4e2	-0.13466218
199	0x3daceae1	0.08443237
200	0xbab2e24b	-0.0013647763
201	0x3db6414c	0.08899173
202	0x3e0f6a49	0.14005388
203	0x3e2276a2	0.15865567
204	0x3cfd0fe4	0.030891366
205	0xbdf9e23b	-0.12201353
206	0xbe968224	-0.29396164
207	0xbdebef16	-0.115202114
208	0x3e687f21	0.22704746
209	0xbd792e7a	-0.06083534
210	0xbdfc1647	-0.123089366
211	0x3d811866	0.06303482
212	0x3e1b3068	0.15155184
213	0xbd917d20	-0.07103944
214	0xba1abc3c	-0.0005902683
215	0xbdafa148	-0.08575684
216	0x3d989613	0.074504994
217	0xbddf3ea8	-0.109006226
218	0x3e59403a	0.21215907
219	0x3c73b8cf	0.014875605
220	0xbd671705	-0.056418438
221	0xbde0b4a2	-0.10971953
222	0xbe15413c	-0.14575666
223	0x3d7156bf	0.05892062
224	0x3d8be009	0.06829841
225	0x3d9f6579	0.07783026
226	0xbc77f69c	-0.01513448
227	0x3e97fced	0.29685155
228	0x3d5e65b7	0.05429622
229	0x3e8ed17e	0.27894205
230	0x3e4c2138	0.19934547
231	0x3e515630	0.20443034
232	0xbe67efa4	-0.2265001
233	0x3d9de06e	0.07708822
234	0x3dd4ebad	0.10396514
235	0x3d1f8867	0.038948443
236	0x3e605efa	0.2191123
237	0x3da8bd4a	0.08239229
238	0x3dee0e2a	0.11623795
239	0xbdff16ac	-0.12455496
240	0x3d079c43	0.033108007
241	0xbdaeb5e4	-0.08530787
242	0x3d988cf0	0.07448757
243	0xbe1c4873	-0.15262012
244	0xbd7855c1	-0.060628656
245	0x3ccec1cd	0.025238896
246	0xbd3dbae2	-0.046320803
247	0x3e2ae0e9	0.16687359
248	0xbdfd0cfa	-0.12355991
249	0x3d0d3d28	0.03448215
250	0x3d8d837b	0.069098435
251	0x3c8a1455	0.016855398
252	0x3daf5685	0.08561424
253	0xbd9163e9	-0.070991345
254	0xbc7237d4	-0.014783818
255	0x3d920ac7	0.07130962

fc2.weight f4 [128, 256]
0	0x3da02082	0.078187004
1	0x3d62562e	0.05525797
2	0x3d768a9a	0.060190775
3	0xbbba8b28	-0.0056928582
4	0xbe064723	-0.13113074
5	0xbecb0c9b	-0.39658055
6	0x3da12b85	0.07869629
7	0xbd6a8a1f	-0.05726063
8	0xbcb533be	-0.0221194
9	0x3da6dd8f	0.08147728
10	0x3d191070	0.03736919
11	0xbddbba2c	-0.10728869
12	0x3c91bf3e	0.017791387
13	0x3d442ef8	0.047896355
14	0xbd815441	-0.06314898
15	0x3de76dec	0.11300263
16	0x3e8c7b95	0.27438036
17	0xbdd02966	-0.10164146
18	0x3db652e7	0.08902531
19	0x3dad1f92	0.08453287
20	0x3cdcf522	0.026972357
21	0x3cebc84a	0.028782029
22	0x3e3d4eae	0.18487045
23	0x3acd73ee	0.0015674809
24	0xbd7bc4d9	-0.061467025
25	0x3e183958	0.14865625
26	0x3c444a64	0.011980627
27	0x3dc9e0e0	0.098573446
28	0xbd9dce46	-0.07705359
29	0xbcbe0b84	-0.02319885
30	0x3da09fdd	0.078429915
31	0x3d1ea708	0.038733512
32	0x3ca3a147	0.019974364
33	0x3c9f9682	0.019480947
34	0x3bf25d39	0.007396367
35	0xbdd23573	-0.10264101
36	0xbd853156	-0.06503551
37	0xbd48b05a	-0.048996307
38	0xbd8760e6	-0.06610279
39	0xbe08138d	-0.13288708
40	0xbd618922	-0.05506242
41	0xbd290b31	-0.04127044
42	0x3e003620	0.12520647
43	0x3ea30d03	0.31845865
44	0x3da0022b	0.078129135
45	0xbd3e984d	-0.046531964
46	0xbcf6382e	-0.030056085
47	0x3da96989	0.08272082
48	0x3dafed19	0.08590145
49	0x3e123833	0.14279251
50	0xbc447773	-0.01199137
51	0x3c296246	0.010338372
52	0x3de7687e	0.11299227
53	0xbe7a0e35	-0.24419482
54	0xbd77c03f	-0.060486075
55	0xbde1c406	-0.11023717
56	0xbdf6cefb	-0.12051197
57	0xbe868751	-0.26275113
58	0xbcc023eb	-0.023454627
59	0x3c912013	0.01771549
60	0xbdda21c5	-0.10650972
61	0x3ce91c10	0.028455764
62	0xbdc019d5	-0.09379927
63	0xbbda3b16	-0.0066598756
64	0x3be92922	0.007115499
65	0x3d3560a0	0.044281602
66	0x3d0c5eda	0.034270145
67	0xbe2f0bc2	-0.17094329
68	0xbe42665a	-0.18984357
69	0xbdbc1e87	-0.0918551
70	0x3de99110	0.114046216
71	0x3dcf8318	0.10132426
72	0x3e7298e4	0.23691136
73	0x3d22407d	0.039612282
74	0xbdc4b71a	-0.09605236
75	0xbc8c68f9	-0.017139899
76	0x3e1b99b0	0.15195346
77	0x3e273fa9	0.16332878
78	0xbdafdcc5	-0.0858703
79	0x3e3119f2	0.17295054
80	0x3cba6fdd	0.022758419
81	0x3e234fea	0.15948454
82	0xba6b6ca4	-0.0008980727
83	0xbb002fc3	-0.0019559718
84	0xbcc4685a	-0.02397554
85	0x3e854bc3	0.26034364
86	0xbd655041	-0.05598474
87	0xbcda6b76	-0.02666257
88	0xbd2d8788	-0.04236558
89	0x3dcffd56	0.10155742
90	0x3d7b8c3d	0.06141304
91	0x3cfdf53d	0.031000728
92	0xbe64febe	-0.22362801
93	0xbee19eb0	-0.4406638
94	0xbe12fd46	-0.14354429
95	0xbe6689e9	-0.22513546
96	0xbde00ac2	-0.10939552
97	0xbe74be41	-0.23900701
98	0x3cb44a1c	0.022007994
99	0x3d543aeb	0.051814
100	0xbd978548	-0.07398468
101	0x3db0bcca	0.08629759
102	0x3d2afabd	0.04174303
103	0x3d5338c3	0.051567804
104	0x3d35a5e9	0.044347677
105	0xbdc75a46	-0.09734015
106	0xbda682dd	-0.08130429
107	0xbda61bd2	-0.08110775
108	0xbdaceb74	-0.084433466
109	0x3b4006cd	0.0029300929
110	0x3ded47bf	0.1158595
111	0x3d46e9d0	0.048562825
112	0x3ca3a1af	0.019974558
113	0xbd91f5e5	-0.07126979
114	0x3c8ce01c	0.017196707
115	0xbe079915	-0.1324199
116	0x3dd4070d	0.10352907
117	0xbdca3740	-0.09873819
118	0x3c800726	0.015628409
119	0x3da898d9	0.082322784
120	0xbdca5b31	-0.09880675
121	0x3da3c797	0.07997053
122	0x3d8c28a4	0.06843689
123	0xbe1700aa	-0.14746347
124	0xbdd62aaa	-0.10457356
125	0x3e819e4f	0.25316092
126	0xbd7baacd	-0.061442185
127	0xbc1af84e	-0.0094586145
128	0xbcc35fb7	-0.023849351
129	0xbce6f6a0	-0.028193772
130	0x3d9929c3	0.074786685
131	0x3cdbb2a5	0.026818583
132	0xbe847fb9	-0.25878695
133	0xbe079ae5	-0.13242681
134	0x3dd723a2	0.10504843
135	0x3dd26b5a	0.10274382
136	0xbdc17628	-0.09446365
137	0x3dc5bea8	0.096555054
138	0xbdcc1349	-0.09964616
139	0xbdbfb0c7	-0.093598895
140	0x3dac2b9d	0.08406756
141	0xbef5ecd9	-0.48032263
142	0xbdc35708	-0.09538084
143	0x3d5a96ad	0.053366352
144	0xbbab8dea	-0.0052354233
145	0xbe4c6f15	-0.1996425
146	0xbe2e74e7	-0.17036782
147	0xbdfb94bb	-0.122842275
148	0xbd2f2488	-0.04275945
149	0xbe084944	-0.13309199
150	0xbe309bd6	-0.17246947
151	0xbdf704d5	-0.120614685
152	0x3ec615eb	0.38688597
153	0x3c4601d6	0.012085399
154	0xbdfe51b3	-0.12417927
155	0xbe729011	-0.2368777
156	0xbc2ea4f4	-0.010659445
157	0x3df662c2	0.12030555
158	0xbc38e0f6	-0.011284104
159	0x3bc3351b	0.0059572584
160	0x3e090d6d	0.13384028
161	0x3c207966	0.009794569
162	0xbc05fc52	-0.008177834
163	0x3d2c522e	0.04207056
164	0xbd2269a3	-0.039651524
165	0x3cbd0927	0.023075653
166	0x3b4b1ba8	0.0030991826
167	0xbdb6298b	-0.088946424
168	0x3c9992ae	0.0187467
169	0x3e044861	0.12918235
170	0x3cd90271	0.026490422
171	0x3dc1967a	0.09452529
172	0x3c905baa	0.017621834
173	0xbc66dd3c	-0.014090832
174	0x3dbeda7a	0.09319015
175	0xba9d93e6	-0.0012022227
176	0xbe5e1a28	-0.21689665
177	0x3d79193d	0.060815085
178	0x3c9628f2	0.018330071
179	0x3d8eeebe	0.0697913
180	0xbb3a2659	-0.0028404205
181	0x3dd11a2c	0.1021007
182	0x3ea023da	0.31277353
183	0x3dc587e0	0.09645057
184	0xbd1f6c4f	-0.03892165
185	0x3d2c758e	0.042104296
186	0x3e15fbb1	0.14646794
187	0xbcf06e78	-0.02934955
188	0x3df8ca5a	0.121479705
189	0xbe22c7b7	-0.15896498
190	0x3d555e77	0.05209204
191	0x3dfe32c9	0.1241203
192	0xbe69a72a	-0.22817674
193	0x3da2ffb3	0.07958927
194	0xbdfc80ad	-0.123292305
195	0x3e0e65ae	0.13905975
196	0x3dfc8ace	0.123311624
197	0xbdc03f23	-0.093870424
198	0x3d01e8c3	0.03171612
199	0x3cd402e4	0.025880285
200	0x3d01ccf0	0.031689584
201	0x3c758776	0.01498591
202	0xbdb74b10	-0.08949864
203	0xbcc3143f	-0.023813365
204	0x3dd5a5c3	0.10432007
205	0x3dc67b4d	0.096914865
206	0xbcc7e35d	-0.024400407
207	0xbe42da83	-0.19028668
208	0xbd8d7def	-0.069087856
209	0x3e075d91	0.13219287
210	0x3c86fa4f	0.016476778
211	0x3d53c5ac	0.051702186
212	0x3cb967b4	0.022632457
213	0x3b9d2b30	0.004796408
214	0x3e1f0f0e	0.15533087
215	0x3deb2d9a	0.11483307
216	0x3d18cc89	0.037304435
217	0xbd8e0dae	-0.06936203
218	0xbd0213be	-0.03175711
219	0x3dc35425	0.09537534
220	0x3c4343f3	0.011918056
221	0x3da5598b	0.080737196
222	0xbd747215	-0.05967911
223	0xbbeaaee5	-0.0071619623
224	0xbd8dd075	-0.06924526
225	0xbc0d1f9c	-0.008613493
226	0xbe3e65a8	-0.18593466
227	0x3e14380c	0.14474505
228	0x3e0fe758	0.14053094
229	0x3e160d24	0.1465345
230	0xbe236b1b	-0.15958826
231	0xbd9e6f69	-0.077360936
232	0xbe02532f	-0.12727045
233	0xbd909370	-0.070593715
234	0x3d2e9d7c	0.042630658
235	0xbddb3807	-0.10704046
236	0xbd9fcc80	-0.07802677
237	0xbd0edf55	-0.034880955
238	0xbdeca912	-0.11555685
239	0xbdbafb1d	-0.09129927
240	0xbe23d665	-0.15999754
241	0x3d071b0d	0.032984782
242	0x3d902021	0.07037378
243	0x3e1c80e8	0.15283549
244	0x3a93ad48	0.0011266852
245	0xbd1a48cf	-0.037667092
246	0x3e7c3669	0.24630131
247	0xbe38a9f6	-0.18033585
248	0x3d40266b	0.04691164
249	0xbe446bd4	-0.19181758
250	0xbc4b0430	-0.012391135
251	0xbdf13d33	-0.11779251
252	0xbe20fc5a	-0.15721264
253	0x3d9a288c	0.07527265
254	0x3d29c013	0.041442942
255	0xbd3bc472	-0.04584164

fc2.bias f4 [128]
0	0xbc3a65d5	-0.011376818
1	0xbc9e4c61	-0.01932353
2	0xbd852386	-0.06500916
3	0x3d957864	0.07298353
4	0xbd0ff4b0	-0.03514546
5	0xbcb302b4	-0.021851875
6	0xbc5f5c66	-0.013632869
7	0x3d825b1e	0.063650355
8	0xba120249	-0.00055697985
9	0x3bb8ab52	0.0056356573
10	0xbd1ef6a5	-0.038809437
11	0xbd81530b	-0.06314667
12	0xbd091efa	-0.033476807
13	0x3d808172	0.0627469
14	0xbd1e70ac	-0.03868167
15	0x3d0bedb8	0.034162253
16	0x3d05ce89	0.03266767
17	0xbd39e719	-0.045386408
18	0xbc52d36c	-0.01286779
19	0xbd8294e5	-0.06376056
20	0xbd9a6e17	-0.07540529
21	0x3c42d80e	0.011892332
22	0x3a805649	0.000979134
23	0xbd37c7cd	-0.04486828
24	0x3d6acbb2	0.057323165
25	0x3cffabdc	0.031209879
26	0xbb7d2bba	-0.00386308
27	0x3d141e0d	0.03616147
28	0x3d6ffc07	0.05858996
29	0x3add29fc	0.0016873474
30	0x3dbf8f4f	0.09353506
31	0xbd44ca1a	-0.0480443
32	0x3c8bfab0	0.01708731
33	0x3d70622d	0.058687378
34	0xbcada94d	-0.021198893
35	0x3ca9598a	0.020672578
36	0xbd50ff41	-0.05102468
37	0x3afce656	0.001929472
38	0xbd8b5265	-0.06802825
39	0x3cb93978	0.022610411
40	0xbc6d997e	-0.014501927
41	0x3d9b74cb	0.07590636
42	0x3d25029a	0.040285684
43	0x3c8d930c	0.017282031
44	0x3bc9dbc3	0.006160231
45	0x3cd89aa7	0.026440931
46	0xbc84f678	-0.016230807
47	0x3d2ae3ec	0.04172127
48	0xbc9a7bb6	-0.018857818
49	0xbd15b754	-0.03655179
50	0x3d1309fe	0.0358982
51	0x3d133852	0.035942383
52	0x3d03d3b1	0.032184307
53	0x3c9323ba	0.017961372
54	0x3d0c5c2a	0.034267582
55	0x3cdfc40f	0.027315168
56	0xbd9b02d4	-0.07568899
57	0xbd3071c4	-0.043077245
58	0x3b43f107	0.0029898302
59	0x3af08b4d	0.0018352062
60	0x3d2c9884	0.042137638
61	0xbd77a447	-0.0604594
62	0xbbb43996	-0.005500029
63	0x3d7371ad	0.05943458
64	0xbd5fe332	-0.05466003
65	0x3ca7311f	0.020409165
66	0xbd37bc96	-0.044857584
67	0xba885d28	-0.0010403739
68	0xbc51d8a3	-0.012807998
69	0x3d97ab23	0.074056886
70	0xbc299018	-0.010349296
71	0x3c6bf881	0.01440251
72	0x3d1326f5	0.035925824
73	0x3cd202d9	0.025636123
74	0x3d80ff1e	0.0629866
75	0x3c2af86d	0.010435206
76	0xbd787a39	-0.060663436
77	0xbcb62982	-0.02223659
78	0x3d050467	0.0324749
79	0x3dc9e925	0.09858922
80	0x3caccf36	0.0210949
81	0x3d40a3a1	0.04703105
82	0x3d021b0b	0.03176407
83	0xbc5aee65	-0.013362502
84	0xbb9a12f9	-0.0047019687
85	0xbda9fa0c	-0.08299646
86	0x3d826e20	0.06368661
87	0x3c5db96a	0.013532976
88	0xbd3d9023	-0.046280038
89	0x3d21008b	0.03930716
90	0xbd372f6d	-0.044722963
91	0xbd2fe32c	-0.042941257
92	0xbbe84216	-0.007087956
93	0x3d7b09c1	0.0612886
94	0x3d5761ba	0.052583434
95	0x3c84ef56	0.016227406
96	0x3d6c7aea	0.057734407
97	0xbd3149d3	-0.043283295
98	0x3d14718f	0.03624111
99	0xbd5763df	-0.05258548
100	0xbd2883c9	-0.041141305
101	0xbd627869	-0.055290613
102	0xbd418725	-0.047248024
103	0x3be1e597	0.0068938243
104	0x3cbe3a44	0.023221143
105	0x3c1bc033	0.009506273
106	0x3b223325	0.0024749723
107	0xbd3b8f96	-0.04579123
108	0x3c85dd30	0.016340822
109	0x3d10b61c	0.035329923
110	0x3d8ffbce	0.0703045
111	0xbd50c6b6	-0.050970756
112	0xbd0a122d	-0.03370874
113	0xbce55834	-0.02799616
114	0x3da74162	0.08166768
115	0xbbb39bdc	-0.0054812264
116	0x3c923278	0.017846331
117	0x3bcfcfdc	0.0063419174
118	0xbd19a1e2	-0.0375079
119	0xbb35456b	-0.0027659785
120	0xbb5e1e80	-0.003389269
121	0x3c030305	0.007996325
122	0xbd929df7	-0.07159036
123	0x3bc58016	0.006027232
124	0x3ceb4118	0.028717563
125	0x3d287620	0.041128278
126	0x3d3a46f5	0.045477826
127	0xbccc1a53	-0.024914896

fc3.weight f4 [4, 128]
0	0xbdd47874	-0.10374537
1	0xbe441c16	-0.19151339
2	0x3e41bea1	0.18920375
3	0x3d683ed2	0.056700535
4	0x3e06194d	0.13095589
5	0xbcad8389	-0.021180885
6	0xbdd0b2d8	-0.10190362
7	0x3db666f3	0.08906355
8	0x3a410b1b	0.00073640206
9	0xbd403996	-0.04692992
10	0x3ee5439b	0.4477814
11	0xbd3a33cb	-0.04545955
12	0x3d46cd7f	0.04853582
13	0xbdff34c5	-0.12461237
14	0x3d9736b5	0.073834814
15	0x3e54c595	0.20778497
16	0xbdc1401f	-0.09436058
17	0xbee048c6	-0.43805522
18	0xbd24ff7a	-0.040282704
19	0x3cd1f51c	0.025629573
20	0xbe9e944d	-0.3097252
21	0xbd0db2f2	-0.034594484
22	0x3df62068	0.120179
23	0x3e53193e	0.20615098
24	0x3d5e22a6	0.054232262
25	0x3da2b822	0.07945277
26	0xbc851a2b	-0.01624783
27	0xbdd45ec5	-0.10369638
28	0xbe17c809	-0.14822401
29	0xbdcb37f7	-0.09922784
30	0x3d5abba0	0.05340159
31	0x3dce1b83	0.10063841
32	0xbdb51113	-0.08841147
33	0x3ce12017	0.027481122
34	0x3e39079d	0.1806931
35	0x3e0cd44b	0.13752858
36	0xbebedfb9	-0.37280062
37	0x3cb22f6b	0.021751126
38	0xbd34a62c	-0.044103786
39	0xbbccf969	-0.006255318
40	0xbd390309	-0.04516891
41	0xbde8112b	-0.113313995
42	0x3ed58ffe	0.4171142
43	0xbe2f1d36	-0.17100987
44	0x3dfb9926	0.1228507
45	0xbe3db1eb	-0.18524902
46	0x3ddc5ac3	0.10759499
47	0xbe7717b4	-0.24130136
48	0xbda72db2	-0.081630126
49	0xbdbeedbf	-0.0932269
50	0x3be54e5d	0.006997867
51	0xbe312e4d	-0.17302819
52	0x3d070ea4	0.032972947
53	0xbdad873e	-0.08473061
54	0xbdb36410	-0.0875932
55	0xbd94ea43	-0.072712444
56	0xbe0f9eb6	-0.14025387
57	0x3dfaba30	0.12242544
58	0xbe5d4a22	-0.2161031
59	0xbd4f631c	-0.050631627
60	0x3d3d7e77	0.046263184
61	0x3d2848dc	0.04108511
62	0xbd395ec5	-0.045256395
63	0xbe11ee2c	-0.14251012
64	0x3eb20a48	0.3477347
65	0x3dfbf892	0.123032704
66	0xbd42cb75	-0.047557313
67	0xbcedb48f	-0.029016761
68	0xbd8a5552	-0.06754555
69	0x3daf9133	0.085726164
70	0xbc71ed7a	-0.0147660915
71	0xbe21abe1	-0.15788223
72	0x3e188a82	0.14896587
73	0x3e0a58f1	0.13510491
74	0x3d81ddf5	0.06341163
75	0xbcd2e09d	-0.02574187
76	0xbd52fc0e	-0.05150991
77	0x3d9c8879	0.076432176
78	0x3db451d8	0.08804673
79	0x3e01cb5b	0.1267523
80	0x3d525cf6	0.051358186
81	0xbd332c96	-0.043743692
82	0x3d810582	0.06299879
83	0x3c231ea5	0.009956037
84	0x3cf24a64	0.029576488
85	0x3dc28fb0	0.095000625
86	0x3dc46d94	0.09591213
87	0xbd8933f6	-0.06699364
88	0x3dc46a2d	0.09590564
89	0x3e2cd46d	0.16877909
90	0xbe25261d	-0.1612782
91	0xbcc4e393	-0.024034297
92	0xbe140c89	-0.14457907
93	0x3eb56864	0.35431206
94	0x3d11cfbf	0.035598513
95	0x3ddeea08	0.10884482
96	0x3d35fe00	0.044431686
97	0x3cc6e72f	0.024280159
98	0xbe03d3db	-0.12873785
99	0xbd97d5d0	-0.074138284
100	0xbcedd887	-0.029033912
101	0xbf26bf4f	-0.65135664
102	0xbe3a54ec	-0.18196458
103	0x3d02159e	0.031758897
104	0x3e523577	0.20528208
105	0xbdc1a96a	-0.09456141
106	0x3cab4fe5	0.02091212
107	0xbd9161fd	-0.07098768
108	0x3f9e7bce	1.2381532
109	0xbca5505b	-0.020179918
110	0x3d6539c0	0.055963278
111	0x3e0748b4	0.13211328
112	0xbe2fb4c4	-0.171588
113	0xbddc55f9	-0.107585855
114	0x3d3dc1e6	0.046327494
115	0x3ca68641	0.02032769
116	0x3dcf0a70	0.10109413
117	0x3d945cbd	0.07244251
118	0xbe8aadee	-0.27085823
119	0x3d974030	0.0738529
120	0xbdab4e09	-0.083644934
121	0x3e0663e9	0.1312405
122	0xbd8f669a	-0.070019916
123	0x3d4924a3	0.049107205
124	0xbd867c1e	-0.06566642
125	0xbe2bc476	-0.16774163
126	0x3d8ca2fb	0.068670236
127	0x3d38967b	0.045065384
128	0x3edb6101	0.42847446
129	0xbe87a0e5	-0.2648994
130	0xbe8f9b87	-0.28048345
131	0xbdbbdfa2	-0.09173514
132	0x3c48a231	0.012245701
133	0x3e3b5897	0.18295513
134	0xbda7be9a	-0.08190651
135	0xbe2a0afc	-0.16605753
136	0xbdccec0a	-0.100059584
137	0xbdcb55c6	-0.09928469
138	0xbda15bdb	-0.07878848
139	0xbdff0f8b	-0.124541365
140	0x3e28c587	0.164816
141	0x3ea79137	0.32727978
142	0x3d9eb08c	0.077485174
143	0x3dfa1e68	0.12212831
144	0xbe123d24	-0.14281136
145	0xbe084a4e	-0.13309595
146	0xbbec08fd	-0.00720322
147	0x3e69177e	0.22762868
148	0x3f0741e2	0.52834904
149	0xbdffc096	-0.12487905
150	0x3d98b84f	0.07457029
151	0x3c00ccb8	0.007861309
152	0xbdaf9a7d	-0.08574388
153	0x3e25eb76	0.16203102
154	0xbdb2a3b9	-0.08722634
155	0xbcf053d4	-0.029336847
156	0xbd8d10e1	-0.06887985
157	0xbdba4f06	-0.09097104
158	0x3e6f5a5a	0.2337431
159	0xbb5b393a	-0.0033450858
160	0xbdb549cf	-0.088519685
161	0xbdff684c	-0.12471065
162	0xbd8f05c1	-0.06983519
163	0x3e21b18c	0.15790385
164	0xbe85cf73	-0.26134834
165	0x3da689f8	0.08131784
166	0x3e82a25a	0.2551449
167	0x3de86a30	0.11348379
168	0x3d9be950	0.0761286
169	0xbd99bcee	-0.075067386
170	0xbd46c384	-0.048526302
171	0xbe28aa89	-0.16471304
172	0x3e7b4198	0.24536741
173	0xbe4078c9	-0.18796076
174	0x3db818a3	0.08989074
175	0x3dd6e292	0.104924336
176	0xbd4473bc	-0.047961935
177	0xbe47144d	-0.19441338
178	0xbdd6dae6	-0.1049097
179	0xbbe9c46e	-0.007134012
180	0x3e68b21b	0.22724192
181	0xbcb509fc	-0.022099487
182	0xbd88334e	-0.066504106
183	0xbd488fdc	-0.04896532
184	0xbcd8e120	-0.026474535
185	0xbe14cbeb	-0.14530914
186	0x3d915c81	0.07097722
187	0xbe86fa7a	-0.26362973
188	0xbe910c0b	-0.283295
189	0xbe424454	-0.18971378
190	0xbd112f1f	-0.03544533
191	0xbd32650b	-0.043553393
192	0xbe8606e4	-0.26177132
193	0xbe08c8a7	-0.13357793
194	0x3f30a5c9	0.6900297
195	0xbbfa5002	-0.007638932
196	0xbd961f2c	-0.07330164
197	0x3c947b99	0.018125342
198	0x3df8e235	0.121525206
199	0xbe10b3a6	-0.1413103
200	0x3d3a2e62	0.04545439
201	0x3ccb45de	0.024813589
202	0xbd0651bc	-0.03279279
203	0x379e92cc	1.8903425e-05
204	0xbd915e4d	-0.070980646
205	0x3e7145ed	0.23561831
206	0x3d506f10	0.050887167
207	0xbcfce80b	-0.030872365
208	0xbcb4de18	-0.022078559
209	0x3e054ca8	0.13017523
210	0x3dcdb3d7	0.10044067
211	0x3e86ea0f	0.26350448
212	0xbd5f5b9e	-0.054530732
213	0xbedadd70	-0.42747068
214	0x3d8b957e	0.06815623
215	0xbe660c41	-0.22465612
216	0x3c2110d2	0.00983067
217	0xbdc789ba	-0.09743066
218	0x3d6a3479	0.057178948
219	0xbd04147b	-0.032246094
220	0x3e9073be	0.28213304
221	0xbef58472	-0.4795261
222	0x3c28045c	0.010254946
223	0x3c03fab1	0.008055375
224	0xbd992af8	-0.07478899
225	0x3e017e0e	0.12645742
226	0x3ec30442	0.38089186
227	0x3ce90f3a	0.028449643
228	0xbda09f0e	-0.07842837
229	0x3d137186	0.035996936
230	0x3e1d9bf0	0.15391517
231	0xbdd3f480	-0.10349369
232	0xbe55de87	-0.20885669
233	0x3eb3cbcb	0.3511642
234	0xbdb79eca	-0.089658335
235	0xbca360d9	-0.019943641
236	0xbf1554f7	-0.5833277
237	0xbea732bd	-0.32655898
238	0xbe0300ba	-0.12793246
239	0xbe922ac4	-0.28548253
240	0x3d9bb0f7	0.07602113
241	0x3e76f304	0.2411614
242	0x3e8edee0	0.27904415
243	0x3e9226db	0.2854527
244	0x3de35d56	0.11101787
245	0xbd3ccb1a	-0.04609213
246	0xbe4a8e59	-0.19780864
247	0x3e44353a	0.1916093
248	0xbd9a0bf1	-0.07521809
249	0x3e294054	0.16528445
250	0x3f07f71d	0.5311144
251	0xbceb4da5	-0.028723547
252	0x3e49573a	0.1966218
253	0xbeb6e27d	-0.35719672
254	0x3e58f07c	0.21185488
255	0xbe38a0c9	-0.18030085

fc3.bias f4 [4]
0	0xbb8ad280	-0.0042365193
1	0xbd43b97d	-0.047784317
2	0x3d70cd87	0.058789756
3	0x3d94a9b9	0.072589345
